data.pth (torch, 7210 bytes, 6 tensors)

l1.weight f4 [8, 88]
0.17195864 -0.27395675 0.30176604 -0.04502063 0.57899994 -0.2555384 -0.41002274 0.70249665
0.27722916 -0.1470645 1.0412351 0.79904884 0.068396986 -0.38325042 -0.38279793 -0.06562995
0.7463229 0.8234527 -0.16803573 0.8203572 -0.027742967 0.87089276 0.73763955 0.2754393
-0.14488535 0.32120854 -0.1488052 -0.14822446 1.0133411 -0.35200256 -0.24200511 -0.34135467
-0.3493316 0.6441324 -0.9298827 0.7072471 -0.08294138 -0.08550567 -0.039160863 -0.4724675
0.58545315 -0.42223486 -0.6082732 0.7637339 -0.0025533664 -0.018711407 -0.2794586 0.5032848
0.82727563 -0.83487767 -0.19533423 0.80258745 -0.51705587 -0.12092009 -0.47804078 0.9253389
-0.40280232 0.3282221 0.54470825 0.09135282 1.0351243 -0.02468506 0.7626775 0.11399879
0.36775494 0.6019729 0.81979847 0.7277755 0.61276996 0.07497899 -0.06398134 -0.035402667
-0.32877493 -0.25410852 -0.3536505 -0.11772717 0.4687552 0.23127155 -0.01793367 1.115761
0.18537258 0.6497822 0.9595017 -0.28737018 -0.5047971 0.6345193 0.039098237 1.017069
0.6770751 -0.25850987 -0.2367101 0.54023945 0.29277292 -0.15024255 0.65140235 0.22489016
-0.24626292 0.6775167 -0.70973384 0.14381741 -0.09371794 0.5239708 0.6565124 0.5151468
-0.015466466 -0.4567649 0.5861961 0.30337712 -0.4953967 -0.18170291 -0.23437221 -0.22770916
-0.11197144 -0.11026502 0.62468845 0.81481767 -0.65213066 0.8714151 0.3293721 0.85562336
0.94231826 -0.48918083 -0.02022066 0.011913409 -0.03338065 0.68147963 -0.1745065 -0.6985871
-0.26510915 -0.60349685 0.50466186 0.29548314 -0.56822413 0.4829826 -0.30695462 -0.0017912545
-0.40367463 0.6246519 0.6351121 -0.3689175 0.39031985 0.5958078 0.2781803 -0.37905973
-0.363399 -0.15461202 -0.17680284 0.49478325 -0.11310425 -0.109771654 -0.28483444 0.5023938
-0.18578544 -0.20098117 -0.4942465 0.015293735 0.27049154 0.13426475 -0.43455 -0.11964915
0.32678133 -0.29268578 0.58852667 0.40164948 -0.19359979 0.5015027 -0.1977159 0.13130528
-0.12958759 0.26607668 -0.7644145 -0.13429569 0.3268986 -0.51648635 0.66464263 -0.24225351
0.74338305 0.30987015 0.6002212 -0.04282451 1.0882552 -0.41738477 -0.52984494 0.5134238
0.22664875 0.005887778 -0.024679678 0.7319417 0.532293 0.16829051 -0.0078089517 -0.009054406
0.0419172 0.5977786 -0.13197944 -0.008258018 -0.07059965 -0.41836262 0.2539939 0.27011353
-0.45926327 0.36836872 -0.06554558 0.0839079 0.012433669 -0.3497857 -0.65349257 -0.38304296
-0.24786814 -0.33211792 -0.45162395 0.33733055 0.66518176 0.22687843 -0.027203303 -0.79167277
0.33243075 -0.56551826 0.00012799435 0.9993351 -0.0130077535 -0.2135139 0.23183858 -0.33585173
0.16265075 0.29600736 -0.15220486 -0.4365174 0.014818339 -0.13307403 0.05599485 -0.26835477
0.5365346 0.27588075 -0.064821295 0.6271349 -0.6152305 -0.090798974 -0.56237197 0.8289598
-0.029840223 0.11715129 0.6896625 0.14584008 0.42728814 1.0572885 -0.03514113 -0.46772537
0.011056768 0.30240524 -1.0554768 -0.6247149 -0.17638567 -0.1784669 0.0037378133 0.62365717
00000000: ed15 303e 0f44 8cbe 1481 9a3e 8d67 38bd
00000010: 5739 143f eed5 82be 80ee d1be d2d6 333f
00000020: fbf0 8d3e 1498 16be 3147 853f 778e 4c3f
00000030: b813 8c3d 6639 c4be 17fe c3be ff68 86bd
00000040: 040f 3f3f cccd 523f 8f11 2cbe ee02 523f
00000050: 3845 e3bc d4f2 5e3f f2d5 3c3f 6106 8d3e
00000060: d35c 14be 7275 a43e 6460 18be 27c8 17be
00000070: 29b5 813f ae39 b4be 30d0 77be 0ac6 aebe
00000080: 97db b2be dce5 243f cb0c 6ebf 250e 353f
00000090: 2cdd a9bd 991d afbd 2467 20bd 43e7 f1be
000000a0: 42e0 153f 2b2f d8be cbb7 1bbf 1184 433f
000000b0: 6156 27bb aa48 99bc 3315 8fbe 46d7 003f
000000c0: 56c8 533f 8bba 55bf b205 48be 5f76 4d3f
000000d0: c65d 04bf f4a4 f7bd c3c1 f4be 03e3 6c3f
000000e0: 1b3c cebe ba0c a83e 0072 0b3f 3017 bb3d
000000f0: f47e 843f 5338 cabc d53e 433f 3378 e93d
00000100: 604a bc3e e51a 1a3f 50de 513f 7f4f 3a3f
00000110: 7ede 1c3f 968e 993d a608 83bd 6302 11bd
00000120: 3055 a8be 831a 82be ae11 b5be f11a f1bd
00000130: ae00 f03e 73d2 6c3e a2e9 92bc 42d1 8e3f
00000140: 4fd2 3d3e 2058 263f e7a1 753f 2f22 93be
00000150: 623a 01bf db6f 223f 7925 203d 512f 823f
00000160: cb54 2d3f 685b 84be 2264 72be 224d 0a3f
00000170: 55e6 953e 2fd9 19be 4ec2 263f 9b49 663e
00000180: 592c 7cbe bc71 2d3f 1eb1 35bf df44 133e
00000190: 31ef bfbd f322 063f 3211 283f a9e0 033f
000001a0: 0f67 7dbc 17dd e9be f310 163f 3f54 9b3e
000001b0: a3a4 fdbe 5410 3abe 45ff 6fbe 972c 69be
000001c0: 4851 e5bd a0d2 e1bd 95eb 1f3f e497 503f
000001d0: 09f2 26bf 0f15 5f3f 76a3 a83e 220a 5b3f
000001e0: c53b 713f e975 fabe cca5 a5bc 7630 433c
000001f0: 26ba 08bd 7375 2e3f d5b1 32be 9bd6 32bf
00000200: 63bc 87be c57e 1abf 8531 013f 9149 973e
00000210: 2377 11bf 7f49 f73e 2829 9dbe 87c8 eaba
00000220: 71ae cebe 30e9 1f3f b596 223f c1e2 bcbe
00000230: 01d8 c73e dc86 183f a66d 8e3e 1e14 c2be
00000240: 6f0f babe 9d52 1ebe ce0b 35be 3b54 fd3e
00000250: 33a3 e7bd f6cf e0bd d2d5 91be e19c 003f
00000260: 8a3e 3ebe 02ce 4dbe e10d fdbe 9392 7a3c
00000270: de7d 8a3e b37c 093e 567d debe 9d0a f5bd
00000280: e24f a73e e9da 95be afa9 163f 00a5 cd3e
00000290: 063f 46be 7b62 003f 0976 4abe e474 063e
000002a0: 9cb2 04be 343b 883e abb0 43bf cf84 09be
000002b0: 415f a73e 7338 04bf 0526 2a3f 4e11 78be
000002c0: 5a4e 3e3f 4da7 9e3e 19a8 193f c168 2fbd
000002d0: f24b 8b3f 75b3 d5be eba3 07bf be6f 033f
000002e0: 9c16 683e 43ee c03b 092d cabc 8860 3b3f
000002f0: 5b44 083f 5954 2c3e 3ce2 ffbb ee58 14bc
00000300: 5fb1 2b3d 0508 193f 9e25 07be a34c 07bc
00000310: 8d96 90bd a033 d6be 7d0b 823e 524c 8a3e
00000320: 8e24 ebbe d39a bc3e c33c 86bd e8d7 ab3d
00000330: 96b6 4b3c 1c17 b3be 4a4b 27bf 351e c4be
00000340: 25d1 7dbe 5c0b aabe 413b e7be 97b6 ac3e
00000350: 5a49 2a3f d252 683e 76d9 debc 11ab 4abf
00000360: 5d34 aa3e cec5 10bf 3936 0639 6dd4 7f3f
00000370: 791e 55bc 63a3 5abe 1867 6d3e c2f4 abbe
00000380: eb8d 263e 478e 973e 97db 1bbe 357f dfbe
00000390: 9ec8 723c 8f44 08be db5a 653d cc65 89be
000003a0: 555a 093f 3e40 8d3e 07c1 84bd ea8b 203f
000003b0: bf7f 1dbf d0f4 b9bd 9cf7 0fbf b636 543f
000003c0: 7c73 f4bc 04ed ef3d b98d 303f 1a57 153e
000003d0: 83c5 da3e 3b55 873f 25f0 0fbd b379 efbe
000003e0: 7227 353c dcd4 9a3e dd19 87bf 51ed 1fbf
000003f0: 729e 34be 07c0 36be 1af6 743b ffa7 1f3f

l1.bias f4 [8]
0.35350502 1.1916392 0.55919135 0.4785428 0.91735876 0.8237907 1.1388463 0.96296996
00000000: 9cfe b43e a287 983f 2a27 0f3f 9003 f53e
00000010: 06d8 6a3f f3e3 523f b7c5 913f 3385 763f

l2.weight f4 [8, 8]
0.55327636 1.1293039 1.475759 -0.852901 1.7064579 -1.1335652 -1.0738355 0.7581544
-0.55533564 1.2093079 -1.3383601 0.6444473 1.0054833 0.9794726 -0.6491344 0.68974483
-1.1248794 0.45350578 -0.66468304 -0.6733943 1.396422 1.1031344 1.6353906 0.52710325
1.4929682 0.4253687 0.97841305 1.1260198 -1.112983 0.17616671 1.8122528 -0.065133385
-0.9729336 1.5581635 0.83982575 0.38315156 -0.20553906 0.21130238 -0.20014845 1.7547272
0.56746805 0.25380865 -0.001319586 -0.35970998 1.1217345 1.5816363 -0.77773714 -1.4108071
-0.9815787 1.1255338 -0.010678603 -0.17264846 1.067413 0.017501822 1.6866003 -2.0584433
1.0624763 -0.634281 -0.29596055 0.32313365 0.42996147 1.6441703 -0.1931732 0.027237521
00000000: 85a3 0d3f 088d 903f ace5 bc3f b857 5abf
00000010: 366d da3f aa18 91bf 7173 89bf 6816 423f
00000020: 7a2a 0ebf 9aca 9a3f 624f abbf 80fa 243f
00000030: adb3 803f b7be 7a3f ac2d 26bf 1e93 303f
00000040: 0cfc 8fbf e931 e83e ab28 2abf 9263 2cbf
00000050: f5bd b23f 8233 8d3f 7b54 d13f 3df0 063f
00000060: 9519 bf3f edc9 d93e 4779 7a3f 6b21 903f
00000070: 3a76 8ebf 0c65 343e e6f7 e73f a764 85bd
00000080: 2d12 79bf e771 c73f d2fe 563f 712c c43e
00000090: d578 52be a75f 583e b7f3 4cbe e79a e03f
000000a0: 9645 113f 35f3 813e f5f5 acba e82b b8be
000000b0: ff94 8f3f 0f73 ca3f c819 47bf 5495 b4bf
000000c0: be48 7bbf 7e11 903f 4ff5 2ebc c2ca 30be
000000d0: fda0 883f fb5f 8f3c 85e2 d73f 89bd 03c0
000000e0: 39ff 873f 3d60 22bf 2488 97be c671 a53e
000000f0: e923 dc3e 2c74 d23f 32cf 45be 3921 df3c

l2.bias f4 [8]
-0.13533363 0.4365097 0.40630412 0.71192515 0.9428221 0.49504882 0.95629513 0.06386157
00000000: e694 0abe 337e df3e 1807 d03e ba40 363f
00000010: ca5c 713f 0a77 fd3e c2cf 743f dbc9 823d

l3.weight f4 [14, 8]
-0.7865948 -0.5057039 -0.15079463 -0.68366045 0.14192906 0.8709268 -1.3088741 0.52050006
-1.4910023 -0.6957814 -0.96478415 1.0255498 -0.7266912 -1.9465138 -1.5367408 -0.0463248
0.74415565 0.14415906 -0.0041524656 -1.2422369 -1.7541416 0.2239947 -0.5270724 -0.07040875
-1.5498424 -0.97514874 0.9898988 -1.0045861 -1.3414387 -1.460154 1.0531341 -1.7054726
-0.32727903 0.33110675 -0.020233689 -0.29004067 0.94682837 -1.2132508 -0.9986807 -2.736414
-1.3753208 -0.034755614 0.3735462 -1.0503962 0.34440878 0.17641245 0.67727613 -0.4836265
0.6714625 -1.9501201 -1.2547946 -0.139405 0.76223594 -1.6330659 -1.2566398 -1.3182893
-2.4442449 -1.9373653 -0.18953468 0.2555828 -1.0930322 0.157044 0.56999195 0.30406088
0.26666668 0.43071508 -0.18497631 -2.3871884 0.028922131 0.38242188 0.624687 -1.6938319
0.91019917 -0.67068547 0.2429155 -1.0104024 0.078181185 -0.31327868 -1.2745992 -1.2591224
0.46777195 -0.7126819 -1.0919243 0.44359985 -1.0806372 -0.096372515 -0.72421783 -1.166854
0.21464217 -1.6242009 -0.090945944 -0.27945405 0.1420554 -0.8879359 0.64551437 -1.751589
-0.71397936 0.5631119 0.2774504 -2.1548731 -1.1038427 0.66379356 -0.041476954 0.38136703
-0.3682996 0.76202625 0.44102746 -2.6278553 0.6275187 -0.45720893 -0.6318856 0.017473267
00000000: 475e 49bf d075 01bf e869 1abe 5f04 2fbf
00000010: da55 113e 0ff5 5e3f 3089 a7bf 7e3f 053f
00000020: 2ad9 bebf bb1e 32bf 18fc 76bf 3745 833f
00000030: 6f08 3abf 5d27 f9bf ecb3 c4bf 13bf 3dbd
00000040: fc80 3e3f 6f9e 133e 6811 88bb 9e01 9fbf
00000050: b687 e0bf de5e 653e 38ee 06bf 7632 90bd
00000060: 3c61 c6bf 59a3 79bf 026a 7d3f 4796 80bf
00000070: 43b4 abbf 54e6 babf 19cd 863f ed4c dabf
00000080: 1e91 a7be d386 a93e 1fc1 a5bc 3680 94be
00000090: 5863 723f cd4b 9bbf 8aa9 7fbf 6821 2fc0
000000a0: 830a b0bf e75b 0ebd 7341 bf3e 6273 86bf
000000b0: 5956 b03e 77a5 343e f861 2d3f e59d f7be
000000c0: f7e4 2b3f 899d f9bf 1c9d a0bf 2fc0 0ebe
000000d0: e521 433f 4e08 d1bf 93d9 a0bf b4bd a8bf
000000e0: 826e 1cc0 96fb f7bf 6115 42be c0db 823e
000000f0: 7be8 8bbf 24d0 203e feea 113f dead 9b3e
00000100: 8988 883e b086 dc3e 6e6a 3dbe b2c7 18c0
00000110: 1bee ec3c cdcc c33e 7deb 1f3f 7ccf d8bf
00000120: d002 693f 0bb2 2bbf d7be 783e de54 81bf
00000130: 751d a03d 1066 a0be 1126 a3bf ec2a a1bf
00000140: ce7f ef3e 5272 36bf 2dc4 8bbf 851f e33e
00000150: 5252 8abf f45e c5bd 5766 39bf 795b 95bf
00000160: 28cb 5b3e d1e5 cfbf de41 babd 9a14 8fbe
00000170: f976 113e c44f 63bf 6e40 253f 1134 e0bf
00000180: 5ac7 36bf 1a28 103f fb0d 8e3e 71e9 09c0
00000190: b84a 8dbf 60ee 293f bde3 29bd 8a42 c33e
000001a0: c491 bcbe 2714 433f 5ace e13e c82e 28c0
000001b0: 11a5 203f 4a17 eabe 41c3 21bf 1924 8f3c

l3.bias f4 [14]
0.2964841 0.83527136 -0.16355044 0.22195643 0.7558464 0.27050668 0.108983316 0.18881693
-0.32733235 -0.44580415 0.12365905 0.02802351 -0.6914984 -0.41020536
00000000: c4cc 973e 58d4 553f c479 27be 8c48 633e
00000010: 267f 413f da7f 8a3e a532 df3d 3a59 413e
00000020: 1b98 a7be 7140 e4be f540 fd3d 8f91 e53c
00000030: 0a06 31bf 7006 d2be
